{
  "class_name": "Sequential",
  "config": {
    "name": "sequential_2",
    "layers": [
      {
        "class_name": "Conv2D",
        "config": {
          "name": "conv2d_27",
          "trainable": true,
          "batch_input_shape": [
            null,
            256,
            256,
            1
          ],
          "dtype": "float32",
          "filters": 64,
          "kernel_size": [
            3,
            3
          ],
          "strides": [
            1,
            1
          ],
          "padding": "same",
          "data_format": "channels_last",
          "dilation_rate": [
            1,
            1
          ],
          "activation": "linear",
          "use_bias": true,
          "kernel_initializer": {
            "class_name": "VarianceScaling",
            "config": {
              "scale": 1.0,
              "mode": "fan_avg",
              "distribution": "uniform",
              "seed": null
            }
          },
          "bias_initializer": {
            "class_name": "Zeros",
            "config": {}
          },
          "kernel_regularizer": null,
          "bias_regularizer": null,
          "activity_regularizer": null,
          "kernel_constraint": null,
          "bias_constraint": null
        }
      },
      {
        "class_name": "BatchNormalization",
        "config": {
          "name": "batch_normalization_27",
          "trainable": true,
          "dtype": "float32",
          "axis": -1,
          "momentum": 0.99,
          "epsilon": 0.001,
          "center": true,
          "scale": true,
          "beta_initializer": {
            "class_name": "Zeros",
            "config": {}
          },
          "gamma_initializer": {
            "class_name": "Ones",
            "config": {}
          },
          "moving_mean_initializer": {
            "class_name": "Zeros",
            "config": {}
          },
          "moving_variance_initializer": {
            "class_name": "Ones",
            "config": {}
          },
          "beta_regularizer": null,
          "gamma_regularizer": null,
          "beta_constraint": null,
          "gamma_constraint": null
        }
      },
      {
        "class_name": "Activation",
        "config": {
          "name": "activation_27",
          "trainable": true,
          "dtype": "float32",
          "activation": "relu"
        }
      },
      {
        "class_name": "Conv2D",
        "config": {
          "name": "conv2d_28",
          "trainable": true,
          "dtype": "float32",
          "filters": 64,
          "kernel_size": [
            3,
            3
          ],
          "strides": [
            1,
            1
          ],
          "padding": "same",
          "data_format": "channels_last",
          "dilation_rate": [
            1,
            1
          ],
          "activation": "linear",
          "use_bias": true,
          "kernel_initializer": {
            "class_name": "VarianceScaling",
            "config": {
              "scale": 1.0,
              "mode": "fan_avg",
              "distribution": "uniform",
              "seed": null
            }
          },
          "bias_initializer": {
            "class_name": "Zeros",
            "config": {}
          },
          "kernel_regularizer": null,
          "bias_regularizer": null,
          "activity_regularizer": null,
          "kernel_constraint": null,
          "bias_constraint": null
        }
      },
      {
        "class_name": "BatchNormalization",
        "config": {
          "name": "batch_normalization_28",
          "trainable": true,
          "dtype": "float32",
          "axis": -1,
          "momentum": 0.99,
          "epsilon": 0.001,
          "center": true,
          "scale": true,
          "beta_initializer": {
            "class_name": "Zeros",
            "config": {}
          },
          "gamma_initializer": {
            "class_name": "Ones",
            "config": {}
          },
          "moving_mean_initializer": {
            "class_name": "Zeros",
            "config": {}
          },
          "moving_variance_initializer": {
            "class_name": "Ones",
            "config": {}
          },
          "beta_regularizer": null,
          "gamma_regularizer": null,
          "beta_constraint": null,
          "gamma_constraint": null
        }
      },
      {
        "class_name": "Activation",
        "config": {
          "name": "activation_28",
          "trainable": true,
          "dtype": "float32",
          "activation": "relu"
        }
      },
      {
        "class_name": "MaxPooling2D",
        "config": {
          "name": "max_pooling2d_6",
          "trainable": true,
          "dtype": "float32",
          "pool_size": [
            2,
            2
          ],
          "padding": "valid",
          "strides": [
            2,
            2
          ],
          "data_format": "channels_last"
        }
      },
      {
        "class_name": "Conv2D",
        "config": {
          "name": "conv2d_29",
          "trainable": true,
          "dtype": "float32",
          "filters": 128,
          "kernel_size": [
            3,
            3
          ],
          "strides": [
            1,
            1
          ],
          "padding": "same",
          "data_format": "channels_last",
          "dilation_rate": [
            1,
            1
          ],
          "activation": "linear",
          "use_bias": true,
          "kernel_initializer": {
            "class_name": "VarianceScaling",
            "config": {
              "scale": 1.0,
              "mode": "fan_avg",
              "distribution": "uniform",
              "seed": null
            }
          },
          "bias_initializer": {
            "class_name": "Zeros",
            "config": {}
          },
          "kernel_regularizer": null,
          "bias_regularizer": null,
          "activity_regularizer": null,
          "kernel_constraint": null,
          "bias_constraint": null
        }
      },
      {
        "class_name": "BatchNormalization",
        "config": {
          "name": "batch_normalization_29",
          "trainable": true,
          "dtype": "float32",
          "axis": -1,
          "momentum": 0.99,
          "epsilon": 0.001,
          "center": true,
          "scale": true,
          "beta_initializer": {
            "class_name": "Zeros",
            "config": {}
          },
          "gamma_initializer": {
            "class_name": "Ones",
            "config": {}
          },
          "moving_mean_initializer": {
            "class_name": "Zeros",
            "config": {}
          },
          "moving_variance_initializer": {
            "class_name": "Ones",
            "config": {}
          },
          "beta_regularizer": null,
          "gamma_regularizer": null,
          "beta_constraint": null,
          "gamma_constraint": null
        }
      },
      {
        "class_name": "Activation",
        "config": {
          "name": "activation_29",
          "trainable": true,
          "dtype": "float32",
          "activation": "relu"
        }
      },
      {
        "class_name": "Conv2D",
        "config": {
          "name": "conv2d_30",
          "trainable": true,
          "dtype": "float32",
          "filters": 128,
          "kernel_size": [
            3,
            3
          ],
          "strides": [
            1,
            1
          ],
          "padding": "same",
          "data_format": "channels_last",
          "dilation_rate": [
            1,
            1
          ],
          "activation": "linear",
          "use_bias": true,
          "kernel_initializer": {
            "class_name": "VarianceScaling",
            "config": {
              "scale": 1.0,
              "mode": "fan_avg",
              "distribution": "uniform",
              "seed": null
            }
          },
          "bias_initializer": {
            "class_name": "Zeros",
            "config": {}
          },
          "kernel_regularizer": null,
          "bias_regularizer": null,
          "activity_regularizer": null,
          "kernel_constraint": null,
          "bias_constraint": null
        }
      },
      {
        "class_name": "BatchNormalization",
        "config": {
          "name": "batch_normalization_30",
          "trainable": true,
          "dtype": "float32",
          "axis": -1,
          "momentum": 0.99,
          "epsilon": 0.001,
          "center": true,
          "scale": true,
          "beta_initializer": {
            "class_name": "Zeros",
            "config": {}
          },
          "gamma_initializer": {
            "class_name": "Ones",
            "config": {}
          },
          "moving_mean_initializer": {
            "class_name": "Zeros",
            "config": {}
          },
          "moving_variance_initializer": {
            "class_name": "Ones",
            "config": {}
          },
          "beta_regularizer": null,
          "gamma_regularizer": null,
          "beta_constraint": null,
          "gamma_constraint": null
        }
      },
      {
        "class_name": "Activation",
        "config": {
          "name": "activation_30",
          "trainable": true,
          "dtype": "float32",
          "activation": "relu"
        }
      },
      {
        "class_name": "MaxPooling2D",
        "config": {
          "name": "max_pooling2d_7",
          "trainable": true,
          "dtype": "float32",
          "pool_size": [
            2,
            2
          ],
          "padding": "valid",
          "strides": [
            2,
            2
          ],
          "data_format": "channels_last"
        }
      },
      {
        "class_name": "Conv2D",
        "config": {
          "name": "conv2d_31",
          "trainable": true,
          "dtype": "float32",
          "filters": 256,
          "kernel_size": [
            3,
            3
          ],
          "strides": [
            1,
            1
          ],
          "padding": "same",
          "data_format": "channels_last",
          "dilation_rate": [
            1,
            1
          ],
          "activation": "linear",
          "use_bias": true,
          "kernel_initializer": {
            "class_name": "VarianceScaling",
            "config": {
              "scale": 1.0,
              "mode": "fan_avg",
              "distribution": "uniform",
              "seed": null
            }
          },
          "bias_initializer": {
            "class_name": "Zeros",
            "config": {}
          },
          "kernel_regularizer": null,
          "bias_regularizer": null,
          "activity_regularizer": null,
          "kernel_constraint": null,
          "bias_constraint": null
        }
      },
      {
        "class_name": "BatchNormalization",
        "config": {
          "name": "batch_normalization_31",
          "trainable": true,
          "dtype": "float32",
          "axis": -1,
          "momentum": 0.99,
          "epsilon": 0.001,
          "center": true,
          "scale": true,
          "beta_initializer": {
            "class_name": "Zeros",
            "config": {}
          },
          "gamma_initializer": {
            "class_name": "Ones",
            "config": {}
          },
          "moving_mean_initializer": {
            "class_name": "Zeros",
            "config": {}
          },
          "moving_variance_initializer": {
            "class_name": "Ones",
            "config": {}
          },
          "beta_regularizer": null,
          "gamma_regularizer": null,
          "beta_constraint": null,
          "gamma_constraint": null
        }
      },
      {
        "class_name": "Activation",
        "config": {
          "name": "activation_31",
          "trainable": true,
          "dtype": "float32",
          "activation": "relu"
        }
      },
      {
        "class_name": "Conv2D",
        "config": {
          "name": "conv2d_32",
          "trainable": true,
          "dtype": "float32",
          "filters": 256,
          "kernel_size": [
            3,
            3
          ],
          "strides": [
            1,
            1
          ],
          "padding": "same",
          "data_format": "channels_last",
          "dilation_rate": [
            1,
            1
          ],
          "activation": "linear",
          "use_bias": true,
          "kernel_initializer": {
            "class_name": "VarianceScaling",
            "config": {
              "scale": 1.0,
              "mode": "fan_avg",
              "distribution": "uniform",
              "seed": null
            }
          },
          "bias_initializer": {
            "class_name": "Zeros",
            "config": {}
          },
          "kernel_regularizer": null,
          "bias_regularizer": null,
          "activity_regularizer": null,
          "kernel_constraint": null,
          "bias_constraint": null
        }
      },
      {
        "class_name": "BatchNormalization",
        "config": {
          "name": "batch_normalization_32",
          "trainable": true,
          "dtype": "float32",
          "axis": -1,
          "momentum": 0.99,
          "epsilon": 0.001,
          "center": true,
          "scale": true,
          "beta_initializer": {
            "class_name": "Zeros",
            "config": {}
          },
          "gamma_initializer": {
            "class_name": "Ones",
            "config": {}
          },
          "moving_mean_initializer": {
            "class_name": "Zeros",
            "config": {}
          },
          "moving_variance_initializer": {
            "class_name": "Ones",
            "config": {}
          },
          "beta_regularizer": null,
          "gamma_regularizer": null,
          "beta_constraint": null,
          "gamma_constraint": null
        }
      },
      {
        "class_name": "Activation",
        "config": {
          "name": "activation_32",
          "trainable": true,
          "dtype": "float32",
          "activation": "relu"
        }
      },
      {
        "class_name": "Conv2D",
        "config": {
          "name": "conv2d_33",
          "trainable": true,
          "dtype": "float32",
          "filters": 256,
          "kernel_size": [
            3,
            3
          ],
          "strides": [
            1,
            1
          ],
          "padding": "same",
          "data_format": "channels_last",
          "dilation_rate": [
            1,
            1
          ],
          "activation": "linear",
          "use_bias": true,
          "kernel_initializer": {
            "class_name": "VarianceScaling",
            "config": {
              "scale": 1.0,
              "mode": "fan_avg",
              "distribution": "uniform",
              "seed": null
            }
          },
          "bias_initializer": {
            "class_name": "Zeros",
            "config": {}
          },
          "kernel_regularizer": null,
          "bias_regularizer": null,
          "activity_regularizer": null,
          "kernel_constraint": null,
          "bias_constraint": null
        }
      },
      {
        "class_name": "BatchNormalization",
        "config": {
          "name": "batch_normalization_33",
          "trainable": true,
          "dtype": "float32",
          "axis": -1,
          "momentum": 0.99,
          "epsilon": 0.001,
          "center": true,
          "scale": true,
          "beta_initializer": {
            "class_name": "Zeros",
            "config": {}
          },
          "gamma_initializer": {
            "class_name": "Ones",
            "config": {}
          },
          "moving_mean_initializer": {
            "class_name": "Zeros",
            "config": {}
          },
          "moving_variance_initializer": {
            "class_name": "Ones",
            "config": {}
          },
          "beta_regularizer": null,
          "gamma_regularizer": null,
          "beta_constraint": null,
          "gamma_constraint": null
        }
      },
      {
        "class_name": "Activation",
        "config": {
          "name": "activation_33",
          "trainable": true,
          "dtype": "float32",
          "activation": "relu"
        }
      },
      {
        "class_name": "MaxPooling2D",
        "config": {
          "name": "max_pooling2d_8",
          "trainable": true,
          "dtype": "float32",
          "pool_size": [
            2,
            2
          ],
          "padding": "valid",
          "strides": [
            2,
            2
          ],
          "data_format": "channels_last"
        }
      },
      {
        "class_name": "Conv2D",
        "config": {
          "name": "conv2d_34",
          "trainable": true,
          "dtype": "float32",
          "filters": 512,
          "kernel_size": [
            3,
            3
          ],
          "strides": [
            1,
            1
          ],
          "padding": "same",
          "data_format": "channels_last",
          "dilation_rate": [
            1,
            1
          ],
          "activation": "linear",
          "use_bias": true,
          "kernel_initializer": {
            "class_name": "VarianceScaling",
            "config": {
              "scale": 1.0,
              "mode": "fan_avg",
              "distribution": "uniform",
              "seed": null
            }
          },
          "bias_initializer": {
            "class_name": "Zeros",
            "config": {}
          },
          "kernel_regularizer": null,
          "bias_regularizer": null,
          "activity_regularizer": null,
          "kernel_constraint": null,
          "bias_constraint": null
        }
      },
      {
        "class_name": "BatchNormalization",
        "config": {
          "name": "batch_normalization_34",
          "trainable": true,
          "dtype": "float32",
          "axis": -1,
          "momentum": 0.99,
          "epsilon": 0.001,
          "center": true,
          "scale": true,
          "beta_initializer": {
            "class_name": "Zeros",
            "config": {}
          },
          "gamma_initializer": {
            "class_name": "Ones",
            "config": {}
          },
          "moving_mean_initializer": {
            "class_name": "Zeros",
            "config": {}
          },
          "moving_variance_initializer": {
            "class_name": "Ones",
            "config": {}
          },
          "beta_regularizer": null,
          "gamma_regularizer": null,
          "beta_constraint": null,
          "gamma_constraint": null
        }
      },
      {
        "class_name": "Activation",
        "config": {
          "name": "activation_34",
          "trainable": true,
          "dtype": "float32",
          "activation": "relu"
        }
      },
      {
        "class_name": "Conv2D",
        "config": {
          "name": "conv2d_35",
          "trainable": true,
          "dtype": "float32",
          "filters": 512,
          "kernel_size": [
            3,
            3
          ],
          "strides": [
            1,
            1
          ],
          "padding": "same",
          "data_format": "channels_last",
          "dilation_rate": [
            1,
            1
          ],
          "activation": "linear",
          "use_bias": true,
          "kernel_initializer": {
            "class_name": "VarianceScaling",
            "config": {
              "scale": 1.0,
              "mode": "fan_avg",
              "distribution": "uniform",
              "seed": null
            }
          },
          "bias_initializer": {
            "class_name": "Zeros",
            "config": {}
          },
          "kernel_regularizer": null,
          "bias_regularizer": null,
          "activity_regularizer": null,
          "kernel_constraint": null,
          "bias_constraint": null
        }
      },
      {
        "class_name": "BatchNormalization",
        "config": {
          "name": "batch_normalization_35",
          "trainable": true,
          "dtype": "float32",
          "axis": -1,
          "momentum": 0.99,
          "epsilon": 0.001,
          "center": true,
          "scale": true,
          "beta_initializer": {
            "class_name": "Zeros",
            "config": {}
          },
          "gamma_initializer": {
            "class_name": "Ones",
            "config": {}
          },
          "moving_mean_initializer": {
            "class_name": "Zeros",
            "config": {}
          },
          "moving_variance_initializer": {
            "class_name": "Ones",
            "config": {}
          },
          "beta_regularizer": null,
          "gamma_regularizer": null,
          "beta_constraint": null,
          "gamma_constraint": null
        }
      },
      {
        "class_name": "Activation",
        "config": {
          "name": "activation_35",
          "trainable": true,
          "dtype": "float32",
          "activation": "relu"
        }
      },
      {
        "class_name": "Conv2D",
        "config": {
          "name": "conv2d_36",
          "trainable": true,
          "dtype": "float32",
          "filters": 512,
          "kernel_size": [
            3,
            3
          ],
          "strides": [
            1,
            1
          ],
          "padding": "same",
          "data_format": "channels_last",
          "dilation_rate": [
            1,
            1
          ],
          "activation": "linear",
          "use_bias": true,
          "kernel_initializer": {
            "class_name": "VarianceScaling",
            "config": {
              "scale": 1.0,
              "mode": "fan_avg",
              "distribution": "uniform",
              "seed": null
            }
          },
          "bias_initializer": {
            "class_name": "Zeros",
            "config": {}
          },
          "kernel_regularizer": null,
          "bias_regularizer": null,
          "activity_regularizer": null,
          "kernel_constraint": null,
          "bias_constraint": null
        }
      },
      {
        "class_name": "BatchNormalization",
        "config": {
          "name": "batch_normalization_36",
          "trainable": true,
          "dtype": "float32",
          "axis": -1,
          "momentum": 0.99,
          "epsilon": 0.001,
          "center": true,
          "scale": true,
          "beta_initializer": {
            "class_name": "Zeros",
            "config": {}
          },
          "gamma_initializer": {
            "class_name": "Ones",
            "config": {}
          },
          "moving_mean_initializer": {
            "class_name": "Zeros",
            "config": {}
          },
          "moving_variance_initializer": {
            "class_name": "Ones",
            "config": {}
          },
          "beta_regularizer": null,
          "gamma_regularizer": null,
          "beta_constraint": null,
          "gamma_constraint": null
        }
      },
      {
        "class_name": "Activation",
        "config": {
          "name": "activation_36",
          "trainable": true,
          "dtype": "float32",
          "activation": "relu"
        }
      },
      {
        "class_name": "MaxPooling2D",
        "config": {
          "name": "max_pooling2d_9",
          "trainable": true,
          "dtype": "float32",
          "pool_size": [
            2,
            2
          ],
          "padding": "valid",
          "strides": [
            2,
            2
          ],
          "data_format": "channels_last"
        }
      },
      {
        "class_name": "Conv2D",
        "config": {
          "name": "conv2d_37",
          "trainable": true,
          "dtype": "float32",
          "filters": 512,
          "kernel_size": [
            3,
            3
          ],
          "strides": [
            1,
            1
          ],
          "padding": "same",
          "data_format": "channels_last",
          "dilation_rate": [
            1,
            1
          ],
          "activation": "linear",
          "use_bias": true,
          "kernel_initializer": {
            "class_name": "VarianceScaling",
            "config": {
              "scale": 1.0,
              "mode": "fan_avg",
              "distribution": "uniform",
              "seed": null
            }
          },
          "bias_initializer": {
            "class_name": "Zeros",
            "config": {}
          },
          "kernel_regularizer": null,
          "bias_regularizer": null,
          "activity_regularizer": null,
          "kernel_constraint": null,
          "bias_constraint": null
        }
      },
      {
        "class_name": "BatchNormalization",
        "config": {
          "name": "batch_normalization_37",
          "trainable": true,
          "dtype": "float32",
          "axis": -1,
          "momentum": 0.99,
          "epsilon": 0.001,
          "center": true,
          "scale": true,
          "beta_initializer": {
            "class_name": "Zeros",
            "config": {}
          },
          "gamma_initializer": {
            "class_name": "Ones",
            "config": {}
          },
          "moving_mean_initializer": {
            "class_name": "Zeros",
            "config": {}
          },
          "moving_variance_initializer": {
            "class_name": "Ones",
            "config": {}
          },
          "beta_regularizer": null,
          "gamma_regularizer": null,
          "beta_constraint": null,
          "gamma_constraint": null
        }
      },
      {
        "class_name": "Activation",
        "config": {
          "name": "activation_37",
          "trainable": true,
          "dtype": "float32",
          "activation": "relu"
        }
      },
      {
        "class_name": "Conv2D",
        "config": {
          "name": "conv2d_38",
          "trainable": true,
          "dtype": "float32",
          "filters": 512,
          "kernel_size": [
            3,
            3
          ],
          "strides": [
            1,
            1
          ],
          "padding": "same",
          "data_format": "channels_last",
          "dilation_rate": [
            1,
            1
          ],
          "activation": "linear",
          "use_bias": true,
          "kernel_initializer": {
            "class_name": "VarianceScaling",
            "config": {
              "scale": 1.0,
              "mode": "fan_avg",
              "distribution": "uniform",
              "seed": null
            }
          },
          "bias_initializer": {
            "class_name": "Zeros",
            "config": {}
          },
          "kernel_regularizer": null,
          "bias_regularizer": null,
          "activity_regularizer": null,
          "kernel_constraint": null,
          "bias_constraint": null
        }
      },
      {
        "class_name": "BatchNormalization",
        "config": {
          "name": "batch_normalization_38",
          "trainable": true,
          "dtype": "float32",
          "axis": -1,
          "momentum": 0.99,
          "epsilon": 0.001,
          "center": true,
          "scale": true,
          "beta_initializer": {
            "class_name": "Zeros",
            "config": {}
          },
          "gamma_initializer": {
            "class_name": "Ones",
            "config": {}
          },
          "moving_mean_initializer": {
            "class_name": "Zeros",
            "config": {}
          },
          "moving_variance_initializer": {
            "class_name": "Ones",
            "config": {}
          },
          "beta_regularizer": null,
          "gamma_regularizer": null,
          "beta_constraint": null,
          "gamma_constraint": null
        }
      },
      {
        "class_name": "Activation",
        "config": {
          "name": "activation_38",
          "trainable": true,
          "dtype": "float32",
          "activation": "relu"
        }
      },
      {
        "class_name": "Conv2D",
        "config": {
          "name": "conv2d_39",
          "trainable": true,
          "dtype": "float32",
          "filters": 512,
          "kernel_size": [
            3,
            3
          ],
          "strides": [
            1,
            1
          ],
          "padding": "same",
          "data_format": "channels_last",
          "dilation_rate": [
            1,
            1
          ],
          "activation": "linear",
          "use_bias": true,
          "kernel_initializer": {
            "class_name": "VarianceScaling",
            "config": {
              "scale": 1.0,
              "mode": "fan_avg",
              "distribution": "uniform",
              "seed": null
            }
          },
          "bias_initializer": {
            "class_name": "Zeros",
            "config": {}
          },
          "kernel_regularizer": null,
          "bias_regularizer": null,
          "activity_regularizer": null,
          "kernel_constraint": null,
          "bias_constraint": null
        }
      },
      {
        "class_name": "BatchNormalization",
        "config": {
          "name": "batch_normalization_39",
          "trainable": true,
          "dtype": "float32",
          "axis": -1,
          "momentum": 0.99,
          "epsilon": 0.001,
          "center": true,
          "scale": true,
          "beta_initializer": {
            "class_name": "Zeros",
            "config": {}
          },
          "gamma_initializer": {
            "class_name": "Ones",
            "config": {}
          },
          "moving_mean_initializer": {
            "class_name": "Zeros",
            "config": {}
          },
          "moving_variance_initializer": {
            "class_name": "Ones",
            "config": {}
          },
          "beta_regularizer": null,
          "gamma_regularizer": null,
          "beta_constraint": null,
          "gamma_constraint": null
        }
      },
      {
        "class_name": "Activation",
        "config": {
          "name": "activation_39",
          "trainable": true,
          "dtype": "float32",
          "activation": "relu"
        }
      },
      {
        "class_name": "MaxPooling2D",
        "config": {
          "name": "max_pooling2d_10",
          "trainable": true,
          "dtype": "float32",
          "pool_size": [
            2,
            2
          ],
          "padding": "valid",
          "strides": [
            2,
            2
          ],
          "data_format": "channels_last"
        }
      },
      {
        "class_name": "UpSampling2D",
        "config": {
          "name": "up_sampling2d_6",
          "trainable": true,
          "dtype": "float32",
          "size": [
            2,
            2
          ],
          "data_format": "channels_last",
          "interpolation": "nearest"
        }
      },
      {
        "class_name": "Conv2D",
        "config": {
          "name": "conv2d_40",
          "trainable": true,
          "dtype": "float32",
          "filters": 512,
          "kernel_size": [
            3,
            3
          ],
          "strides": [
            1,
            1
          ],
          "padding": "same",
          "data_format": "channels_last",
          "dilation_rate": [
            1,
            1
          ],
          "activation": "linear",
          "use_bias": true,
          "kernel_initializer": {
            "class_name": "VarianceScaling",
            "config": {
              "scale": 1.0,
              "mode": "fan_avg",
              "distribution": "uniform",
              "seed": null
            }
          },
          "bias_initializer": {
            "class_name": "Zeros",
            "config": {}
          },
          "kernel_regularizer": null,
          "bias_regularizer": null,
          "activity_regularizer": null,
          "kernel_constraint": null,
          "bias_constraint": null
        }
      },
      {
        "class_name": "BatchNormalization",
        "config": {
          "name": "batch_normalization_40",
          "trainable": true,
          "dtype": "float32",
          "axis": -1,
          "momentum": 0.99,
          "epsilon": 0.001,
          "center": true,
          "scale": true,
          "beta_initializer": {
            "class_name": "Zeros",
            "config": {}
          },
          "gamma_initializer": {
            "class_name": "Ones",
            "config": {}
          },
          "moving_mean_initializer": {
            "class_name": "Zeros",
            "config": {}
          },
          "moving_variance_initializer": {
            "class_name": "Ones",
            "config": {}
          },
          "beta_regularizer": null,
          "gamma_regularizer": null,
          "beta_constraint": null,
          "gamma_constraint": null
        }
      },
      {
        "class_name": "Activation",
        "config": {
          "name": "activation_40",
          "trainable": true,
          "dtype": "float32",
          "activation": "relu"
        }
      },
      {
        "class_name": "Conv2D",
        "config": {
          "name": "conv2d_41",
          "trainable": true,
          "dtype": "float32",
          "filters": 512,
          "kernel_size": [
            3,
            3
          ],
          "strides": [
            1,
            1
          ],
          "padding": "same",
          "data_format": "channels_last",
          "dilation_rate": [
            1,
            1
          ],
          "activation": "linear",
          "use_bias": true,
          "kernel_initializer": {
            "class_name": "VarianceScaling",
            "config": {
              "scale": 1.0,
              "mode": "fan_avg",
              "distribution": "uniform",
              "seed": null
            }
          },
          "bias_initializer": {
            "class_name": "Zeros",
            "config": {}
          },
          "kernel_regularizer": null,
          "bias_regularizer": null,
          "activity_regularizer": null,
          "kernel_constraint": null,
          "bias_constraint": null
        }
      },
      {
        "class_name": "BatchNormalization",
        "config": {
          "name": "batch_normalization_41",
          "trainable": true,
          "dtype": "float32",
          "axis": -1,
          "momentum": 0.99,
          "epsilon": 0.001,
          "center": true,
          "scale": true,
          "beta_initializer": {
            "class_name": "Zeros",
            "config": {}
          },
          "gamma_initializer": {
            "class_name": "Ones",
            "config": {}
          },
          "moving_mean_initializer": {
            "class_name": "Zeros",
            "config": {}
          },
          "moving_variance_initializer": {
            "class_name": "Ones",
            "config": {}
          },
          "beta_regularizer": null,
          "gamma_regularizer": null,
          "beta_constraint": null,
          "gamma_constraint": null
        }
      },
      {
        "class_name": "Activation",
        "config": {
          "name": "activation_41",
          "trainable": true,
          "dtype": "float32",
          "activation": "relu"
        }
      },
      {
        "class_name": "Conv2D",
        "config": {
          "name": "conv2d_42",
          "trainable": true,
          "dtype": "float32",
          "filters": 512,
          "kernel_size": [
            3,
            3
          ],
          "strides": [
            1,
            1
          ],
          "padding": "same",
          "data_format": "channels_last",
          "dilation_rate": [
            1,
            1
          ],
          "activation": "linear",
          "use_bias": true,
          "kernel_initializer": {
            "class_name": "VarianceScaling",
            "config": {
              "scale": 1.0,
              "mode": "fan_avg",
              "distribution": "uniform",
              "seed": null
            }
          },
          "bias_initializer": {
            "class_name": "Zeros",
            "config": {}
          },
          "kernel_regularizer": null,
          "bias_regularizer": null,
          "activity_regularizer": null,
          "kernel_constraint": null,
          "bias_constraint": null
        }
      },
      {
        "class_name": "BatchNormalization",
        "config": {
          "name": "batch_normalization_42",
          "trainable": true,
          "dtype": "float32",
          "axis": -1,
          "momentum": 0.99,
          "epsilon": 0.001,
          "center": true,
          "scale": true,
          "beta_initializer": {
            "class_name": "Zeros",
            "config": {}
          },
          "gamma_initializer": {
            "class_name": "Ones",
            "config": {}
          },
          "moving_mean_initializer": {
            "class_name": "Zeros",
            "config": {}
          },
          "moving_variance_initializer": {
            "class_name": "Ones",
            "config": {}
          },
          "beta_regularizer": null,
          "gamma_regularizer": null,
          "beta_constraint": null,
          "gamma_constraint": null
        }
      },
      {
        "class_name": "Activation",
        "config": {
          "name": "activation_42",
          "trainable": true,
          "dtype": "float32",
          "activation": "relu"
        }
      },
      {
        "class_name": "UpSampling2D",
        "config": {
          "name": "up_sampling2d_7",
          "trainable": true,
          "dtype": "float32",
          "size": [
            2,
            2
          ],
          "data_format": "channels_last",
          "interpolation": "nearest"
        }
      },
      {
        "class_name": "Conv2D",
        "config": {
          "name": "conv2d_43",
          "trainable": true,
          "dtype": "float32",
          "filters": 512,
          "kernel_size": [
            3,
            3
          ],
          "strides": [
            1,
            1
          ],
          "padding": "same",
          "data_format": "channels_last",
          "dilation_rate": [
            1,
            1
          ],
          "activation": "linear",
          "use_bias": true,
          "kernel_initializer": {
            "class_name": "VarianceScaling",
            "config": {
              "scale": 1.0,
              "mode": "fan_avg",
              "distribution": "uniform",
              "seed": null
            }
          },
          "bias_initializer": {
            "class_name": "Zeros",
            "config": {}
          },
          "kernel_regularizer": null,
          "bias_regularizer": null,
          "activity_regularizer": null,
          "kernel_constraint": null,
          "bias_constraint": null
        }
      },
      {
        "class_name": "BatchNormalization",
        "config": {
          "name": "batch_normalization_43",
          "trainable": true,
          "dtype": "float32",
          "axis": -1,
          "momentum": 0.99,
          "epsilon": 0.001,
          "center": true,
          "scale": true,
          "beta_initializer": {
            "class_name": "Zeros",
            "config": {}
          },
          "gamma_initializer": {
            "class_name": "Ones",
            "config": {}
          },
          "moving_mean_initializer": {
            "class_name": "Zeros",
            "config": {}
          },
          "moving_variance_initializer": {
            "class_name": "Ones",
            "config": {}
          },
          "beta_regularizer": null,
          "gamma_regularizer": null,
          "beta_constraint": null,
          "gamma_constraint": null
        }
      },
      {
        "class_name": "Activation",
        "config": {
          "name": "activation_43",
          "trainable": true,
          "dtype": "float32",
          "activation": "relu"
        }
      },
      {
        "class_name": "Conv2D",
        "config": {
          "name": "conv2d_44",
          "trainable": true,
          "dtype": "float32",
          "filters": 512,
          "kernel_size": [
            3,
            3
          ],
          "strides": [
            1,
            1
          ],
          "padding": "same",
          "data_format": "channels_last",
          "dilation_rate": [
            1,
            1
          ],
          "activation": "linear",
          "use_bias": true,
          "kernel_initializer": {
            "class_name": "VarianceScaling",
            "config": {
              "scale": 1.0,
              "mode": "fan_avg",
              "distribution": "uniform",
              "seed": null
            }
          },
          "bias_initializer": {
            "class_name": "Zeros",
            "config": {}
          },
          "kernel_regularizer": null,
          "bias_regularizer": null,
          "activity_regularizer": null,
          "kernel_constraint": null,
          "bias_constraint": null
        }
      },
      {
        "class_name": "BatchNormalization",
        "config": {
          "name": "batch_normalization_44",
          "trainable": true,
          "dtype": "float32",
          "axis": -1,
          "momentum": 0.99,
          "epsilon": 0.001,
          "center": true,
          "scale": true,
          "beta_initializer": {
            "class_name": "Zeros",
            "config": {}
          },
          "gamma_initializer": {
            "class_name": "Ones",
            "config": {}
          },
          "moving_mean_initializer": {
            "class_name": "Zeros",
            "config": {}
          },
          "moving_variance_initializer": {
            "class_name": "Ones",
            "config": {}
          },
          "beta_regularizer": null,
          "gamma_regularizer": null,
          "beta_constraint": null,
          "gamma_constraint": null
        }
      },
      {
        "class_name": "Activation",
        "config": {
          "name": "activation_44",
          "trainable": true,
          "dtype": "float32",
          "activation": "relu"
        }
      },
      {
        "class_name": "Conv2D",
        "config": {
          "name": "conv2d_45",
          "trainable": true,
          "dtype": "float32",
          "filters": 256,
          "kernel_size": [
            3,
            3
          ],
          "strides": [
            1,
            1
          ],
          "padding": "same",
          "data_format": "channels_last",
          "dilation_rate": [
            1,
            1
          ],
          "activation": "linear",
          "use_bias": true,
          "kernel_initializer": {
            "class_name": "VarianceScaling",
            "config": {
              "scale": 1.0,
              "mode": "fan_avg",
              "distribution": "uniform",
              "seed": null
            }
          },
          "bias_initializer": {
            "class_name": "Zeros",
            "config": {}
          },
          "kernel_regularizer": null,
          "bias_regularizer": null,
          "activity_regularizer": null,
          "kernel_constraint": null,
          "bias_constraint": null
        }
      },
      {
        "class_name": "BatchNormalization",
        "config": {
          "name": "batch_normalization_45",
          "trainable": true,
          "dtype": "float32",
          "axis": -1,
          "momentum": 0.99,
          "epsilon": 0.001,
          "center": true,
          "scale": true,
          "beta_initializer": {
            "class_name": "Zeros",
            "config": {}
          },
          "gamma_initializer": {
            "class_name": "Ones",
            "config": {}
          },
          "moving_mean_initializer": {
            "class_name": "Zeros",
            "config": {}
          },
          "moving_variance_initializer": {
            "class_name": "Ones",
            "config": {}
          },
          "beta_regularizer": null,
          "gamma_regularizer": null,
          "beta_constraint": null,
          "gamma_constraint": null
        }
      },
      {
        "class_name": "Activation",
        "config": {
          "name": "activation_45",
          "trainable": true,
          "dtype": "float32",
          "activation": "relu"
        }
      },
      {
        "class_name": "UpSampling2D",
        "config": {
          "name": "up_sampling2d_8",
          "trainable": true,
          "dtype": "float32",
          "size": [
            2,
            2
          ],
          "data_format": "channels_last",
          "interpolation": "nearest"
        }
      },
      {
        "class_name": "Conv2D",
        "config": {
          "name": "conv2d_46",
          "trainable": true,
          "dtype": "float32",
          "filters": 256,
          "kernel_size": [
            3,
            3
          ],
          "strides": [
            1,
            1
          ],
          "padding": "same",
          "data_format": "channels_last",
          "dilation_rate": [
            1,
            1
          ],
          "activation": "linear",
          "use_bias": true,
          "kernel_initializer": {
            "class_name": "VarianceScaling",
            "config": {
              "scale": 1.0,
              "mode": "fan_avg",
              "distribution": "uniform",
              "seed": null
            }
          },
          "bias_initializer": {
            "class_name": "Zeros",
            "config": {}
          },
          "kernel_regularizer": null,
          "bias_regularizer": null,
          "activity_regularizer": null,
          "kernel_constraint": null,
          "bias_constraint": null
        }
      },
      {
        "class_name": "BatchNormalization",
        "config": {
          "name": "batch_normalization_46",
          "trainable": true,
          "dtype": "float32",
          "axis": -1,
          "momentum": 0.99,
          "epsilon": 0.001,
          "center": true,
          "scale": true,
          "beta_initializer": {
            "class_name": "Zeros",
            "config": {}
          },
          "gamma_initializer": {
            "class_name": "Ones",
            "config": {}
          },
          "moving_mean_initializer": {
            "class_name": "Zeros",
            "config": {}
          },
          "moving_variance_initializer": {
            "class_name": "Ones",
            "config": {}
          },
          "beta_regularizer": null,
          "gamma_regularizer": null,
          "beta_constraint": null,
          "gamma_constraint": null
        }
      },
      {
        "class_name": "Activation",
        "config": {
          "name": "activation_46",
          "trainable": true,
          "dtype": "float32",
          "activation": "relu"
        }
      },
      {
        "class_name": "Conv2D",
        "config": {
          "name": "conv2d_47",
          "trainable": true,
          "dtype": "float32",
          "filters": 256,
          "kernel_size": [
            3,
            3
          ],
          "strides": [
            1,
            1
          ],
          "padding": "same",
          "data_format": "channels_last",
          "dilation_rate": [
            1,
            1
          ],
          "activation": "linear",
          "use_bias": true,
          "kernel_initializer": {
            "class_name": "VarianceScaling",
            "config": {
              "scale": 1.0,
              "mode": "fan_avg",
              "distribution": "uniform",
              "seed": null
            }
          },
          "bias_initializer": {
            "class_name": "Zeros",
            "config": {}
          },
          "kernel_regularizer": null,
          "bias_regularizer": null,
          "activity_regularizer": null,
          "kernel_constraint": null,
          "bias_constraint": null
        }
      },
      {
        "class_name": "BatchNormalization",
        "config": {
          "name": "batch_normalization_47",
          "trainable": true,
          "dtype": "float32",
          "axis": -1,
          "momentum": 0.99,
          "epsilon": 0.001,
          "center": true,
          "scale": true,
          "beta_initializer": {
            "class_name": "Zeros",
            "config": {}
          },
          "gamma_initializer": {
            "class_name": "Ones",
            "config": {}
          },
          "moving_mean_initializer": {
            "class_name": "Zeros",
            "config": {}
          },
          "moving_variance_initializer": {
            "class_name": "Ones",
            "config": {}
          },
          "beta_regularizer": null,
          "gamma_regularizer": null,
          "beta_constraint": null,
          "gamma_constraint": null
        }
      },
      {
        "class_name": "Activation",
        "config": {
          "name": "activation_47",
          "trainable": true,
          "dtype": "float32",
          "activation": "relu"
        }
      },
      {
        "class_name": "Conv2D",
        "config": {
          "name": "conv2d_48",
          "trainable": true,
          "dtype": "float32",
          "filters": 128,
          "kernel_size": [
            3,
            3
          ],
          "strides": [
            1,
            1
          ],
          "padding": "same",
          "data_format": "channels_last",
          "dilation_rate": [
            1,
            1
          ],
          "activation": "linear",
          "use_bias": true,
          "kernel_initializer": {
            "class_name": "VarianceScaling",
            "config": {
              "scale": 1.0,
              "mode": "fan_avg",
              "distribution": "uniform",
              "seed": null
            }
          },
          "bias_initializer": {
            "class_name": "Zeros",
            "config": {}
          },
          "kernel_regularizer": null,
          "bias_regularizer": null,
          "activity_regularizer": null,
          "kernel_constraint": null,
          "bias_constraint": null
        }
      },
      {
        "class_name": "BatchNormalization",
        "config": {
          "name": "batch_normalization_48",
          "trainable": true,
          "dtype": "float32",
          "axis": -1,
          "momentum": 0.99,
          "epsilon": 0.001,
          "center": true,
          "scale": true,
          "beta_initializer": {
            "class_name": "Zeros",
            "config": {}
          },
          "gamma_initializer": {
            "class_name": "Ones",
            "config": {}
          },
          "moving_mean_initializer": {
            "class_name": "Zeros",
            "config": {}
          },
          "moving_variance_initializer": {
            "class_name": "Ones",
            "config": {}
          },
          "beta_regularizer": null,
          "gamma_regularizer": null,
          "beta_constraint": null,
          "gamma_constraint": null
        }
      },
      {
        "class_name": "Activation",
        "config": {
          "name": "activation_48",
          "trainable": true,
          "dtype": "float32",
          "activation": "relu"
        }
      },
      {
        "class_name": "UpSampling2D",
        "config": {
          "name": "up_sampling2d_9",
          "trainable": true,
          "dtype": "float32",
          "size": [
            2,
            2
          ],
          "data_format": "channels_last",
          "interpolation": "nearest"
        }
      },
      {
        "class_name": "Conv2D",
        "config": {
          "name": "conv2d_49",
          "trainable": true,
          "dtype": "float32",
          "filters": 128,
          "kernel_size": [
            3,
            3
          ],
          "strides": [
            1,
            1
          ],
          "padding": "same",
          "data_format": "channels_last",
          "dilation_rate": [
            1,
            1
          ],
          "activation": "linear",
          "use_bias": true,
          "kernel_initializer": {
            "class_name": "VarianceScaling",
            "config": {
              "scale": 1.0,
              "mode": "fan_avg",
              "distribution": "uniform",
              "seed": null
            }
          },
          "bias_initializer": {
            "class_name": "Zeros",
            "config": {}
          },
          "kernel_regularizer": null,
          "bias_regularizer": null,
          "activity_regularizer": null,
          "kernel_constraint": null,
          "bias_constraint": null
        }
      },
      {
        "class_name": "BatchNormalization",
        "config": {
          "name": "batch_normalization_49",
          "trainable": true,
          "dtype": "float32",
          "axis": -1,
          "momentum": 0.99,
          "epsilon": 0.001,
          "center": true,
          "scale": true,
          "beta_initializer": {
            "class_name": "Zeros",
            "config": {}
          },
          "gamma_initializer": {
            "class_name": "Ones",
            "config": {}
          },
          "moving_mean_initializer": {
            "class_name": "Zeros",
            "config": {}
          },
          "moving_variance_initializer": {
            "class_name": "Ones",
            "config": {}
          },
          "beta_regularizer": null,
          "gamma_regularizer": null,
          "beta_constraint": null,
          "gamma_constraint": null
        }
      },
      {
        "class_name": "Activation",
        "config": {
          "name": "activation_49",
          "trainable": true,
          "dtype": "float32",
          "activation": "relu"
        }
      },
      {
        "class_name": "Conv2D",
        "config": {
          "name": "conv2d_50",
          "trainable": true,
          "dtype": "float32",
          "filters": 64,
          "kernel_size": [
            3,
            3
          ],
          "strides": [
            1,
            1
          ],
          "padding": "same",
          "data_format": "channels_last",
          "dilation_rate": [
            1,
            1
          ],
          "activation": "linear",
          "use_bias": true,
          "kernel_initializer": {
            "class_name": "VarianceScaling",
            "config": {
              "scale": 1.0,
              "mode": "fan_avg",
              "distribution": "uniform",
              "seed": null
            }
          },
          "bias_initializer": {
            "class_name": "Zeros",
            "config": {}
          },
          "kernel_regularizer": null,
          "bias_regularizer": null,
          "activity_regularizer": null,
          "kernel_constraint": null,
          "bias_constraint": null
        }
      },
      {
        "class_name": "BatchNormalization",
        "config": {
          "name": "batch_normalization_50",
          "trainable": true,
          "dtype": "float32",
          "axis": -1,
          "momentum": 0.99,
          "epsilon": 0.001,
          "center": true,
          "scale": true,
          "beta_initializer": {
            "class_name": "Zeros",
            "config": {}
          },
          "gamma_initializer": {
            "class_name": "Ones",
            "config": {}
          },
          "moving_mean_initializer": {
            "class_name": "Zeros",
            "config": {}
          },
          "moving_variance_initializer": {
            "class_name": "Ones",
            "config": {}
          },
          "beta_regularizer": null,
          "gamma_regularizer": null,
          "beta_constraint": null,
          "gamma_constraint": null
        }
      },
      {
        "class_name": "Activation",
        "config": {
          "name": "activation_50",
          "trainable": true,
          "dtype": "float32",
          "activation": "relu"
        }
      },
      {
        "class_name": "UpSampling2D",
        "config": {
          "name": "up_sampling2d_10",
          "trainable": true,
          "dtype": "float32",
          "size": [
            2,
            2
          ],
          "data_format": "channels_last",
          "interpolation": "nearest"
        }
      },
      {
        "class_name": "Conv2D",
        "config": {
          "name": "conv2d_51",
          "trainable": true,
          "dtype": "float32",
          "filters": 64,
          "kernel_size": [
            3,
            3
          ],
          "strides": [
            1,
            1
          ],
          "padding": "same",
          "data_format": "channels_last",
          "dilation_rate": [
            1,
            1
          ],
          "activation": "linear",
          "use_bias": true,
          "kernel_initializer": {
            "class_name": "VarianceScaling",
            "config": {
              "scale": 1.0,
              "mode": "fan_avg",
              "distribution": "uniform",
              "seed": null
            }
          },
          "bias_initializer": {
            "class_name": "Zeros",
            "config": {}
          },
          "kernel_regularizer": null,
          "bias_regularizer": null,
          "activity_regularizer": null,
          "kernel_constraint": null,
          "bias_constraint": null
        }
      },
      {
        "class_name": "BatchNormalization",
        "config": {
          "name": "batch_normalization_51",
          "trainable": true,
          "dtype": "float32",
          "axis": -1,
          "momentum": 0.99,
          "epsilon": 0.001,
          "center": true,
          "scale": true,
          "beta_initializer": {
            "class_name": "Zeros",
            "config": {}
          },
          "gamma_initializer": {
            "class_name": "Ones",
            "config": {}
          },
          "moving_mean_initializer": {
            "class_name": "Zeros",
            "config": {}
          },
          "moving_variance_initializer": {
            "class_name": "Ones",
            "config": {}
          },
          "beta_regularizer": null,
          "gamma_regularizer": null,
          "beta_constraint": null,
          "gamma_constraint": null
        }
      },
      {
        "class_name": "Activation",
        "config": {
          "name": "activation_51",
          "trainable": true,
          "dtype": "float32",
          "activation": "relu"
        }
      },
      {
        "class_name": "Conv2D",
        "config": {
          "name": "conv2d_52",
          "trainable": true,
          "dtype": "float32",
          "filters": 2,
          "kernel_size": [
            1,
            1
          ],
          "strides": [
            1,
            1
          ],
          "padding": "valid",
          "data_format": "channels_last",
          "dilation_rate": [
            1,
            1
          ],
          "activation": "linear",
          "use_bias": true,
          "kernel_initializer": {
            "class_name": "VarianceScaling",
            "config": {
              "scale": 1.0,
              "mode": "fan_avg",
              "distribution": "uniform",
              "seed": null
            }
          },
          "bias_initializer": {
            "class_name": "Zeros",
            "config": {}
          },
          "kernel_regularizer": null,
          "bias_regularizer": null,
          "activity_regularizer": null,
          "kernel_constraint": null,
          "bias_constraint": null
        }
      },
      {
        "class_name": "BatchNormalization",
        "config": {
          "name": "batch_normalization_52",
          "trainable": true,
          "dtype": "float32",
          "axis": -1,
          "momentum": 0.99,
          "epsilon": 0.001,
          "center": true,
          "scale": true,
          "beta_initializer": {
            "class_name": "Zeros",
            "config": {}
          },
          "gamma_initializer": {
            "class_name": "Ones",
            "config": {}
          },
          "moving_mean_initializer": {
            "class_name": "Zeros",
            "config": {}
          },
          "moving_variance_initializer": {
            "class_name": "Ones",
            "config": {}
          },
          "beta_regularizer": null,
          "gamma_regularizer": null,
          "beta_constraint": null,
          "gamma_constraint": null
        }
      },
      {
        "class_name": "Reshape",
        "config": {
          "name": "reshape_2",
          "trainable": true,
          "dtype": "float32",
          "target_shape": [
            2,
            65536
          ]
        }
      },
      {
        "class_name": "Permute",
        "config": {
          "name": "permute_2",
          "trainable": true,
          "dtype": "float32",
          "dims": [
            2,
            1
          ]
        }
      },
      {
        "class_name": "Activation",
        "config": {
          "name": "activation_52",
          "trainable": true,
          "dtype": "float32",
          "activation": "softmax"
        }
      }
    ]
  },
  "keras_version": "2.3.1",
  "backend": "tensorflow"
}